checkpoints/ppo_checkpoint.pth (torch, 181853 bytes, 15 tensors)

shared_fc.weight f4 [256, 28]
000000 50 e8 4c bd b4 e1 1e be 2c aa cb 3c c9 24 bd bd
       -0.050026238 -0.15515786 0.024861418 -0.09235532
000010 4a 3e 1f be 56 79 c6 bc ad 40 4f 3d f2 b9 2d be
       -0.15551105 -0.02422778 0.05059879 -0.16965464
000020 50 e3 a2 3d c6 a4 3c be 66 ce 62 3d be 14 81 3c
       0.07953513 -0.18422231 0.05537262 0.015756961
000030 40 91 00 bd 2d 5c 91 3d cd df 11 be 3e 6c c0 3d
       -0.03138852 0.07097659 -0.1424553 0.093956456
000040 6d 07 91 bd 88 c4 7d bd 55 33 81 3d 1f ba a4 bd
       -0.070814945 -0.061955005 0.06308619 -0.08043312
000050 c2 92 23 3d 76 71 bd 3d d7 74 91 3d dd 36 b1 3c
       0.03993488 0.092501566 0.071023636 0.021632606
000060 7c 2e 10 bd e4 ee b8 3d 7d eb a8 3d e3 81 2c 3e
       -0.03520058 0.0902994 0.08248041 0.16846423
000070 b7 1e 5d bd b3 9f c7 3d 3c 93 ec bd c0 0c f4 bd
       -0.05398437 0.09747257 -0.1155152 -0.11916494
000080 08 52 c1 bd d0 92 03 be c6 ff ae bc 6a fe 01 3a
       -0.09439474 -0.12848973 -0.021362197 0.000495887
000090 56 b9 28 bd 50 82 4e be 48 10 bf 3d 74 92 ac 3d
       -0.041192375 -0.20166898 0.09329277 0.08426371
0000a0 c8 f2 18 3d c0 9e e9 bd 12 59 62 bd 4b 77 04 be
       0.03734091 -0.11407232 -0.055260725 -0.12936132
0000b0 7f 41 a0 bd 23 f3 00 be 12 63 e5 bd d6 25 08 be
       -0.078249924 -0.1259275 -0.11200537 -0.13295683
0000c0 e4 0c 7b 3d 77 a1 d7 3d 7d e8 81 bd 8a 58 a4 bb
       0.06129159 0.10528844 -0.06343172 -0.0050154375
0000d0 e8 7c ab 3d 58 17 f2 3d 24 66 a9 3d c0 96 a1 bb
       0.08373433 0.11820859 0.08271435 -0.004931301
0000e0 a7 af 84 3d 3f 40 d1 bd d9 65 fa 3d 54 91 5e 3d
       0.064788155 -0.10217332 0.12226457 0.054337814
0000f0 6f a8 5c 3d 16 60 a5 3d 40 87 7c bd 8c bd b9 3d
       0.05387157 0.080749676 -0.061652422 0.09069356
000100 ac 13 50 bd 77 81 f9 3d ae 72 00 be 37 7f e0 bd
       -0.05080001 0.121828966 -0.12543747 -0.10961764
000110 e9 2d 32 bd 51 d9 01 3e 4f fe a9 bd ef 21 18 3e
       -0.043500815 0.12680556 -0.08300459 0.14856695
000120 04 8b d6 3d 66 fe 0b 3e 6e 28 51 bc 6c d1 9f 3d
       0.10475734 0.13671264 -0.012765987 0.07803616
000130 5f 18 41 bd 4f b1 98 3d 9d 6b 54 3d 6a 3f 83 bd
       -0.047142383 0.07455694 0.05186044 -0.0640858
000140 de 48 11 3b a6 d3 d1 bc 41 b7 04 bc 02 4e bf 3d
       0.0022168676 -0.025613617 -0.008100332 0.09341051
000150 14 77 46 be 4c 07 22 bd 47 e3 54 bd 92 3e cc 3d
       -0.19381362 -0.03955774 -0.05197456 0.09972872
000160 55 37 16 3d 18 36 0e be e2 f9 8a bd 99 7e 53 be
       0.036673862 -0.13887823 -0.067859426 -0.20653762
000170 cb da 21 be e4 29 bb bd 0a 46 3a be 23 6f 06 be
       -0.15806119 -0.091388494 -0.1819078 -0.13128333
000180 fe b0 c3 3d 75 9e fc bc bb 4f 0d 3d 14 e2 c3 bd
       0.09555243 -0.030837277 0.034499865 -0.09564605
000190 2a 4a c6 bc 0e 50 73 3d 03 0e 29 be f7 c8 cb 3d
       -0.024205286 0.059402518 -0.16509251 0.099504404
0001a0 ab 6d 15 bd 54 0d 10 be 7e 59 f7 3d 0c 6c 81 3d
       -0.03648154 -0.14067584 0.12077616 0.063194364
0001b0 50 4e 12 be c3 18 6d bd cb e1 16 be cb 4c 84 bd
       -0.14287686 -0.057884943 -0.1473457 -0.064599596
0001c0 39 83 18 be b0 d6 01 3e 02 00 52 bd 9e 96 04 3e
       -0.14893807 0.12679553 -0.05126954 0.12948081
0001d0 8f dc 3a be d3 73 04 3e 07 0f d9 3d 74 bd 55 be
       -0.18248199 0.12934808 0.10598569 -0.20873052
0001e0 fa f3 c4 bc 25 fa 85 3d 7b a6 97 3b 7e fb cf 3d
       -0.024042118 0.06541852 0.0046280003 0.1015539
0001f0 8f 76 74 3d c1 0a 93 bc e0 c6 2f be a0 89 9c 3d
       0.05968338 -0.017949464 -0.17165709 0.076434374
000200 8c e2 34 3d 4a dc 12 bd 97 b5 63 bd 79 29 c1 bd
       0.044161364 -0.035854615 -0.0555931 -0.094317384
000210 52 e6 54 bd cc 1b 2a bd f7 fb 52 be 31 26 3c 3d
       -0.051977463 -0.041530415 -0.2060393 0.04593486
000220 50 ce e2 3d f2 4d 9b bd ff d2 18 bc 52 2b b6 3d
       0.11074507 -0.07583226 -0.009327649 0.088949814
000230 2a e3 9c 3d ea c4 31 3c 08 27 e5 3d db c4 ea bd
       0.076605156 0.010850171 0.11189085 -0.114633285
000240 ce 97 2f bd 05 de 9a bd ff 7e 11 3c f6 cf 53 be
       -0.04286938 -0.07561878 0.008880376 -0.206848
000250 be c7 9d bc 51 f8 90 bd af 64 c0 3d cf eb 0b be
       -0.019260284 -0.070786126 0.09394204 -0.13664173
000260 e9 2a d4 bd 03 67 80 be 0f 38 b8 bc 5d a4 b1 bc
       -0.10359747 -0.25078592 -0.022487668 -0.02168482
000270 c0 ba 11 be 58 38 7e bc 96 15 b4 bd 19 f0 e7 bd
       -0.14231396 -0.015516363 -0.0879318 -0.11325092
000280 a9 65 db bd 26 91 bb bc b5 de b8 bd 2f 4b 96 3d
       -0.107127495 -0.02289636 -0.09026853 0.07338559
000290 23 ca 32 3e 8d 8f b3 3d c2 2f 11 be 3b 92 37 be
       0.17459922 0.087676145 -0.14178374 -0.17926876
0002a0 27 c0 3b be 7f e6 70 be 59 79 c8 3d 45 c0 0d 3c
       -0.18335019 -0.23525427 0.0978877 0.008651798
0002b0 c5 73 69 bd c0 33 83 bd bf a3 02 be ef 61 8f bd
       -0.056995172 -0.06406355 -0.12757777 -0.07001101
0002c0 e3 3a 4b 3d 05 c4 08 be 47 bf 86 3d d5 70 ab 3d
       0.049616706 -0.13356026 0.06579452 0.083711304
0002d0 e1 e6 d0 3c ad 80 fb bd 94 4e 0a be f6 b5 fd bd
       0.025500717 -0.12280402 -0.13506538 -0.12388222
0002e0 76 42 b5 3d ff 89 19 be 08 af 0e bd c1 4c b7 bd
       0.08850567 -0.14994048 -0.03483489 -0.089501865
0002f0 04 5d 86 3d 64 19 e5 3d 6b 6a 1e be 7c a1 07 3e
       0.0656071 0.111864835 -0.15470283 0.13245195
000300 ec 5c f5 3d bf d1 58 bd 5d b3 0a 3e 1a 68 a3 3d
       0.11980614 -0.052934404 0.13544984 0.0797884
000310 13 2e 23 3e 85 21 84 bd c3 14 ae bd 94 0e 6a be
       0.15935545 -0.06451706 -0.08500054 -0.22857124
000320 ea cf 13 be 70 5e 95 bc f4 a0 2a be 4c 9e 9c bd
       -0.14434782 -0.018233508 -0.16662961 -0.0764738
000330 18 38 c4 bc 31 d2 ff bc 03 9a c8 3d 41 ee 0d be
       -0.023952529 -0.031228157 0.097950004 -0.13860418
000340 d0 d9 ab bd 82 70 1a bd a3 3a 26 bd 5f af 33 bd
       -0.08391154 -0.037704952 -0.040583264 -0.04386842
000350 df 69 19 bd 46 4d 19 bd 82 5b 07 be d4 d0 03 3e
       -0.037454482 -0.03742721 -0.13218501 0.1287263
000360 10 da a9 bd 1e 2e 22 bc 70 e3 52 3d 47 60 23 be
       -0.08293545 -0.0098986905 0.051486433 -0.15954696
000370 76 2e b0 bd f7 d0 b4 bd b4 ba f7 bd d3 15 ad bd
       -0.08602612 -0.088289194 -0.12096158 -0.08451428
000380 fa bf 3a be ec 4f 49 be 62 94 43 bc a2 ad ee bc
       -0.18237296 -0.19659394 -0.011937233 -0.029135529
000390 7b 49 c5 3d 4f e2 0e be c5 35 b1 bd d3 2c e1 bc
       0.09633156 -0.13953517 -0.08652834 -0.027487194
0003a0 44 c6 e6 bd 6f 3f c0 bc 6d c6 84 bc 68 83 c3 3d
       -0.11268285 -0.023467747 -0.016207898 0.09546548
0003b0 b5 dc a9 3c aa ef a6 3d cf 89 cf 3c 3c f8 90 bd
       0.020735124 0.08151181 0.025334267 -0.07078597
0003c0 e0 3f 21 3b 23 11 04 bd d6 e3 2a be 6f ce 70 bd
       0.0024604723 -0.032242905 -0.16688475 -0.05879062
0003d0 28 a1 bb 3b 45 bd 27 be 7f 94 15 3e 6c 10 b6 3d
       0.0057259984 -0.16380794 0.14607428 0.08889851
0003e0 02 10 1e 3e a1 33 12 3d f9 47 c3 bd 60 f8 99 3b
       0.15435794 0.03569377 -0.09535212 0.004698798
0003f0 4a 0e 56 bd 94 47 dc bd fa fb a1 3d f3 4b 11 3d
       -0.05225972 -0.1075584 0.07909389 0.03547282

shared_fc.bias f4 [256]
000000 f7 d8 21 be c4 8f 6d bd 9e 6f 74 bd 2b 1c bb bc
       -0.15805422 -0.057998434 -0.05967676 -0.02284058
000010 74 34 90 bd 55 60 a9 bd de 4d 74 bd 24 2a b7 bd
       -0.07041255 -0.08270327 -0.059644572 -0.089435846
000020 fb 64 39 3b 4e 83 f2 bd 30 71 a0 3d 7d 40 7f be
       0.0028288949 -0.11841451 0.07834089 -0.24926944
000030 b4 7c cf bd 50 1e cc bc cd b0 26 be 32 58 81 bd
       -0.10131207 -0.024916798 -0.16278382 -0.0631565
000040 ec 22 fa bc 09 62 15 3c b5 0e 19 be 15 e5 a1 bd
       -0.03053423 0.009117612 -0.14947017 -0.07905022
000050 31 94 49 3d 32 b3 25 be 7f 92 b7 bc 35 bb b0 bd
       0.049213592 -0.16181639 -0.022408722 -0.08629457
000060 3d 43 f8 3c cf 6f 6e 3c b7 81 9e bd 9e f1 37 be
       0.0303055 0.014553024 -0.07739585 -0.17963263
000070 0c 35 03 3d b0 02 07 3d ef d0 9e 3d 85 9e fe 3c
       0.03203301 0.032961547 0.07754695 0.031081447
000080 12 06 a9 3d e5 43 64 be b9 23 1d bc ff 88 27 3d
       0.08253111 -0.22291525 -0.0095910365 0.040902134
000090 a6 a5 ba bc 98 d1 26 3a a9 82 3a be a5 c1 7f bd
       -0.022784065 0.00063636294 -0.18213905 -0.062440533
0000a0 ed a4 3b be 05 0d 28 be 1e 52 45 3e d3 80 64 bc
       -0.18324633 -0.16411217 0.19269606 -0.01394673
0000b0 cf 82 da 3c 9b 97 7a bd 59 ff 13 bd 74 bc 0a 3c
       0.026673703 -0.06117974 -0.03613219 0.008467782
0000c0 2c 84 b7 3d 54 86 4d be 9a b5 b0 3c c9 50 85 3c
       0.08960757 -0.20070773 0.02157097 0.016273873
0000d0 fc 3f c4 bd 15 28 3e be e5 78 3e 3d 0f 3a 1e 3e
       -0.095825166 -0.18569978 0.046502013 0.15451835
0000e0 e4 cc cb bd 08 84 74 3d 16 fb 12 3e 4c 8e 3a bd
       -0.09951189 0.059696227 0.14353594 -0.04554586
0000f0 d6 db e9 bc 10 53 7e 3d d7 e3 29 bd 05 3e 77 3c
       -0.028547209 0.062090933 -0.04147705 0.01509047
000100 2a fa d2 3c 39 ed 7d 3d cc ab 3c 3d d7 92 fa 3d
       0.025754053 0.06199381 0.046062276 0.12235039
000110 4b 9a fc 3c 42 95 85 be 3c 9d 6f 3e 01 16 54 be
       0.030835291 -0.26090437 0.23399824 -0.20711519
000120 8e c6 c6 3d b9 61 de 3c 5e de 5d be ce 33 6d be
       0.0970584 0.027146207 -0.21666858 -0.23164293
000130 61 f0 57 be 5a 65 c9 bd 44 b3 73 3e 6a aa 7a bd
       -0.21087791 -0.098337844 0.23798853 -0.061197676
000140 d3 84 9c bd 6e 4a 34 bd 3f d6 93 bd 3b e8 39 be
       -0.07642522 -0.044016294 -0.072185986 -0.18154995
000150 27 a9 33 3e 7b 6f 26 be d2 2b ae 3c e7 d7 bc bb
       0.17544995 -0.16253464 0.02126113 -0.0057630423
000160 3f 68 25 be 83 93 c5 3d 56 2f 85 bc a0 62 05 be
       -0.16153048 0.09647276 -0.016257923 -0.13025904
000170 1f 02 e4 bc 6b 99 6b 3e ce 29 52 be 95 02 94 3b
       -0.027833043 0.23007743 -0.2052376 0.0045169094
000180 a9 00 5b 3d f3 c7 01 be 58 fe 11 be 25 39 15 3e
       0.053467426 -0.12673931 -0.1425718 0.1457258
000190 3f ba db 3d 44 28 6e be dc c3 99 bd cd 7c b2 3d
       0.10728883 -0.23257548 -0.0750806 0.0871521
0001a0 fa 6a 18 bd c9 5c a4 3d 59 49 02 3e 32 8c c5 3d
       -0.037211396 0.0802551 0.12723292 0.09645881
0001b0 b0 94 a0 bd 38 40 1d 3e 90 e1 f0 bd 12 6a f7 bd
       -0.0784086 0.15356529 -0.11761773 -0.12080778
0001c0 98 a2 78 bd e4 fa 49 be 04 47 04 be ef c4 99 bd
       -0.060701936 -0.19724613 -0.12917715 -0.07508265
0001d0 a1 94 7a bd 24 fa 3e be ff 93 a3 bd f2 4b 82 3c
       -0.0611769 -0.18650109 -0.079872124 0.015905354
0001e0 c8 f0 80 bd 8d cc 5e be 68 6e a9 3d 59 ec 91 bd
       -0.062959254 -0.21757717 0.082730114 -0.07125158
0001f0 85 ea 4c 3e 19 22 3b be 53 92 7f be 2a 3c 01 be
       0.20011337 -0.18274726 -0.24958162 -0.12620607
000200 00 b7 fb bd 20 68 98 bc d6 59 12 be 21 a9 54 be
       -0.12290764 -0.018604338 -0.14292082 -0.20767643
000210 ad da 48 bd 61 ea ce bd 05 e8 48 3d 7d 03 78 bc
       -0.04903667 -0.10103298 0.049049396 -0.01513755
000220 47 b9 43 be 67 8a 84 bd 1c aa 46 be 34 62 1a be
       -0.19113646 -0.06471711 -0.19400829 -0.15076524
000230 84 0e 6f bc e3 1c b1 bc b5 dc 38 bd 78 9d a2 bd
       -0.014590863 -0.02162022 -0.045132358 -0.07940191
000240 97 a5 34 3c f6 36 6b be 58 de 96 bd 04 db 87 3c
       0.011025808 -0.22970185 -0.073666275 0.016583927
000250 ca 07 eb 3c 8c 81 82 bc ab 87 e0 bd a3 a8 94 be
       0.028690238 -0.015930913 -0.109633766 -0.2903491
000260 3a 3a 89 bd 78 d1 53 be 09 50 7f bc e2 e6 7d be
       -0.06700559 -0.20685375 -0.015583047 -0.24795106
000270 d2 bd 84 be 5a e7 a6 bd d6 23 31 3e 7a 10 2d bd
       -0.2592607 -0.081495956 0.17298827 -0.04225204
000280 d4 5d 66 bd f6 19 d6 bc b3 b6 ac bd d6 07 89 be
       -0.056241825 -0.026135426 -0.084332846 -0.2676379
000290 29 c2 75 bc 5e 42 70 be c7 d9 2a be 54 3f f2 bd
       -0.014999905 -0.23462817 -0.16684638 -0.11828485
0002a0 ba 70 d1 bd 38 fa 3f bc 98 3c 56 3d b9 a7 d6 bb
       -0.10226579 -0.011717372 0.05230388 -0.006550756
0002b0 a2 84 80 be ff a1 24 be 0c c4 85 bd c9 bb 04 3d
       -0.2510119 -0.16077422 -0.065315336 0.03240565
0002c0 bc 82 97 bd d7 f2 f0 3c 73 b8 13 be 18 03 ac 3d
       -0.073979825 0.02941267 -0.1442583 0.083990276
0002d0 92 bf 78 bd b3 9f 88 be d0 8b ca 3d 6b b1 c9 3d
       -0.06072957 -0.2668434 0.09889948 0.09848293
0002e0 86 f4 3f be 28 87 d4 bd bf 04 a0 3d 8e 41 89 bd
       -0.18745622 -0.103773415 0.07813405 -0.06701957
0002f0 74 c3 14 be 75 09 35 be 95 fe 18 be c7 ca c2 bd
       -0.14527684 -0.17679389 -0.14940865 -0.09511333
000300 fb 11 e4 bd 7b cf 2a be 65 19 25 be 70 85 2d 3d
       -0.11136242 -0.1668071 -0.16122968 0.042363584
000310 46 4b 26 bb 8e 06 3e be 80 ab 28 be 5b 25 ca 3d
       -0.0025374456 -0.18557188 -0.16471672 0.09870406
000320 c4 88 ca bd 9a c6 c1 3c 4b 88 c8 3c 2f 29 06 3e
       -0.09889367 0.02365427 0.024479052 0.13101648
000330 24 45 9b bd 5b 8e 9d bd 11 6a 6d 3c ad bb a3 3d
       -0.07581547 -0.07693168 0.01449062 0.07994781
000340 59 24 0b bd 64 7a 70 be 9e 8e 5f bd 61 85 65 be
       -0.03397021 -0.23484188 -0.05457937 -0.22414161
000350 de a7 d6 3d 4d bc 47 be 23 b8 3b be 0c af 03 3e
       0.10481237 -0.19505425 -0.18331961 0.12859744
000360 f7 22 f7 3b 38 31 83 3d c0 f9 c8 3d c3 60 94 bd
       0.00754201 0.06405872 0.09813261 -0.07245018
000370 f7 98 8d 3c 89 94 bf bd bc db f3 3d d8 c7 da bd
       0.017284853 -0.09354503 0.119071454 -0.106826484
000380 00 90 55 3c 9f 9b 05 3d 9c ce ee 3d b5 4a 31 be
       0.013034821 0.032619115 0.11660501 -0.17313655
000390 31 ca a6 3c fe d2 c2 3d 65 71 78 be 47 19 b9 bb
       0.020360084 0.095129 -0.24262007 -0.0056487652
0003a0 ef be e1 bd 81 1c 91 bd d9 bc f4 bd 6e 3d 8c bb
       -0.11022746 -0.07085515 -0.11950082 -0.004279784
0003b0 c7 4f 98 bc 0a 45 c4 3d c7 25 f1 3d c3 43 da bd
       -0.018592728 0.09583481 0.117747836 -0.10657456
0003c0 d7 01 08 be 3c 21 22 be 70 00 0f 3c 81 ff 2f bd
       -0.13281952 -0.1583299 0.008728132 -0.042968277
0003d0 42 1e 42 be f4 fd 16 bd 65 a9 7d be 49 a2 0b 3e
       -0.18956855 -0.036863282 -0.2477165 0.13636126
0003e0 97 9b 96 bc 68 2c 20 be c1 62 16 be 81 84 a1 3d
       -0.018384738 -0.1564194 -0.14686109 0.07886601
0003f0 16 8a 13 3e f7 c6 75 be 36 67 c3 3d 01 f7 62 be
       0.14408144 -0.2400168 0.0954117 -0.22164537

actor_fc.weight f4 [27, 256]
000000 87 f7 a9 3c 05 c6 71 bb 29 9a 63 3c 5a 41 21 3d
       0.020747913 -0.003689171 0.013891735 0.039368965
000010 4c 7f 1c 3d 3b c8 0b 3e 8b 78 70 3c 30 a5 4a 3d
       0.038207337 0.136506 0.014677177 0.04947394
000020 c5 f1 04 3d 00 14 1d 3d d6 0f 01 bd 2d 15 38 3c
       0.032457132 0.03834915 -0.031509243 0.011235517
000030 e7 20 26 3d b6 72 a1 39 35 1d b6 3c 54 fb 6a 3d
       0.040558722 0.0003079378 0.022230724 0.05736859
000040 79 7d aa bc 8e 0f ca 3c 06 30 11 bd 05 d5 30 3d
       -0.020811783 0.02466562 -0.03544619 0.0431719
000050 71 33 d1 3c 58 e8 3d bd 6b c2 03 3d 37 8f e1 3d
       0.025537224 -0.04636416 0.032167833 0.11013644
000060 53 b5 b1 3d 23 b8 d2 bc 0f ac 0f bd 40 fd 3b 3d
       0.08677163 -0.025722569 -0.035076197 0.045895815
000070 fd cf c3 3c b3 12 5e 3c 06 9d 55 3d 70 52 05 3d
       0.023902887 0.013554263 0.052151702 0.03254932
000080 7d a9 8f 3d e6 3e 5d 3d 9a 64 08 3d c0 f1 36 3d
       0.07014749 0.054015063 0.033299066 0.044664145
000090 b7 d5 e2 3d eb d8 47 3c 22 d4 be 3d 5e 39 b9 3d
       0.11075919 0.012197713 0.09317805 0.09044145
0000a0 ac d9 2d bb ec 6f 7c 3d 89 9f 48 3d fe a6 f9 bc
       -0.0026527448 0.061630175 0.04898027 -0.030475136
0000b0 9a a9 32 3d 90 14 d7 3d a2 54 54 3d 3d dc 34 bd
       0.043618776 0.10501969 0.051838525 -0.044155348
0000c0 27 98 61 3b 2d 29 3d 3d 23 f2 a3 3b c8 5d 8f 3c
       0.0034422965 0.046181846 0.00500323 0.017500773
0000d0 05 42 d7 3d ba 55 ce 3c 24 d0 68 3d dc 47 b6 3d
       0.10510639 0.025187362 0.056839123 0.08900425
0000e0 fa 0a 91 bc bb 81 7b 3d 4f c3 ee 3d 13 da a3 3c
       -0.01770543 0.061403017 0.11658346 0.020001447
0000f0 3b c1 f6 3c b3 6e 22 3d f5 d4 da 3d f1 38 b8 bc
       0.030121436 0.039656352 0.106851496 -0.02248809
000100 a8 fc 70 3d 8d 6f 02 3d 55 a1 c6 3d 4a 57 e6 3c
       0.0588347 0.031844664 0.096987404 0.028117795
000110 12 ee bb 3c a7 94 45 3c 50 21 32 3e 29 b4 8a 3d
       0.02294067 0.012059367 0.1739552 0.06772644
000120 99 00 ba 3d d3 e3 0e 3d fd 68 15 b9 10 22 ee 3d
       0.09082145 0.03488524 -0.00014248858 0.11627591
000130 4b 8e 03 3d 02 ba c9 3d 44 1c 04 3e 90 5c d0 3c
       0.032118123 0.09849931 0.12901407 0.025434762
000140 52 92 2a bd 2c 06 39 3d c6 ff 19 3d f0 10 48 3d
       -0.04164345 0.0451719 0.03759744 0.048844278
000150 91 df 1e 3e 2b 9b a5 3d 7f bf e4 3c 2c 6c f0 bc
       0.15514971 0.080862366 0.027923344 -0.029348455
000160 c1 f6 83 3d f9 c0 e2 3d f7 77 3f bd a0 88 e7 3b
       0.06443549 0.11071963 -0.046745267 0.0070658475
000170 48 7d 98 3d a0 05 d2 3d b3 1d 68 3c 83 f2 ce 3d
       0.074457705 0.10254979 0.014167237 0.10104849
000180 84 16 b1 3d 16 ce fd 3b c6 f3 d2 3d fb 66 06 3e
       0.08646873 0.0077455146 0.10300402 0.13125221
000190 af bd f4 3d d9 de 22 3d 6a 96 ae 3d b8 51 ab 3d
       0.11950242 0.039763305 0.08524783 0.08365196
0001a0 d8 14 af 3d b3 cc 92 3d d8 a4 61 bc 2b f0 db 3d
       0.085488975 0.071679495 -0.013772212 0.10739168
0001b0 51 6e ec 3d 47 8b 07 3e 6c 42 e1 3d 24 58 e0 3d
       0.11544479 0.13236724 0.10998997 0.109543115
0001c0 17 46 07 3d 4a ab d3 3b 38 29 b0 3d c3 74 ef 3d
       0.033025827 0.006459628 0.08601612 0.116921924
0001d0 9d 6c 15 3e 3d 4e 3f 3c 42 27 c4 3d 4b 32 d7 3d
       0.14592214 0.011676368 0.095778 0.105076395
0001e0 cf 04 cd 3d 80 c2 b8 bb d7 85 a3 3d c8 4d 0e 3e
       0.10010683 -0.0056384206 0.07984512 0.13896859
0001f0 17 43 06 3e 52 df 14 3d 70 f9 52 3d cc 48 85 3d
       0.1311153 0.036345787 0.051507413 0.065080255
000200 18 1e b9 3c 45 dd 33 3d f9 36 48 3b 4a 97 f3 3d
       0.022597358 0.04391219 0.0030550344 0.118940905
000210 e7 7b da 3d 99 bb 0a 3d 79 0d ae 3d ff e4 6e bc
       0.10668164 0.033870313 0.084986635 -0.014580964
000220 dd 04 b0 3c 9c 05 c4 3d b3 2d 12 3c 88 95 90 3d
       0.021486694 0.095713824 0.008922028 0.07059771
000230 8a b2 d4 3a 2e 70 f6 3d 60 a1 fc 3d 93 20 f7 3d
       0.0016227525 0.12033115 0.12335467 0.1206676
000240 ed 57 2d 3c 97 b7 c8 3d 5e 0c 6e 3d b9 d0 90 3d
       0.010580045 0.09800642 0.058117263 0.07071061
000250 0a 33 11 3d 68 85 e6 3d 83 f3 f7 3c 99 88 a5 3b
       0.035449065 0.11255914 0.030267483 0.005051684
000260 eb 5d 38 3d 13 cb 89 3d 2c f6 04 3d 5c 80 6f 3d
       0.045011442 0.067281865 0.03246133 0.058472022
000270 b0 bc e6 bc 14 16 fe 3d 58 48 25 3e d7 be 85 3c
       -0.028166145 0.12406555 0.16140878 0.016326351
000280 94 21 ac 3d a0 a3 ae 3d cb fe 2c 3c 5e ac 7f 3c
       0.08404842 0.08527303 0.010558794 0.01560506
000290 27 aa a0 3d a4 85 6c 3d ff 0c 16 bc c4 19 5b 3c
       0.07844954 0.057744637 -0.009158372 0.013372842
0002a0 87 11 1e 3d c1 7a 8c bb 36 64 94 3d a3 fe eb 3c
       0.038590934 -0.0042870943 0.07245676 0.028807944
0002b0 5f 46 f6 3c da 6e 18 3e c0 e2 c3 3d 6d 19 09 3e
       0.030062852 0.14886037 0.095647335 0.13388605
0002c0 78 d7 bc 3d 24 77 45 3d 21 87 cb 3d 8f e6 c9 bb
       0.09220785 0.048209324 0.09937883 -0.006161518
0002d0 4c 41 b0 3b b5 b6 4f 3d f9 29 92 bb 28 63 ed 3d
       0.0053788777 0.050711352 -0.00446057 0.11591178
0002e0 5f 41 62 3d b6 12 96 3c a5 90 8f 3d 22 bd 3a 3d
       0.055238124 0.018319469 0.07010011 0.045590527
0002f0 4c 08 68 3d 89 23 cb 3d ff eb 9c 3c 31 e6 01 3e
       0.056648538 0.09918887 0.0191555 0.12685467
000300 37 c9 04 3e b7 60 b2 3c c4 b0 f6 3d 6b 26 04 3e
       0.12967382 0.021774633 0.12045434 0.1290528
000310 8e 0a af 3c fc df 43 3d 99 86 d0 3d 3e 9b 14 3e
       0.021367338 0.04782103 0.101819225 0.14512345
000320 60 87 f7 3c 53 6f 8d bc b3 a1 51 3d 48 5c 06 3d
       0.030215919 -0.017264998 0.0511796 0.03280285
000330 65 2e 03 3c 2c df d6 bb c7 3a 12 3e 99 a7 4a ba
       0.008006667 -0.006557366 0.14280234 -0.00077306625
000340 2d 9d 95 3d 04 b1 ab 3d ee 68 5c 3d 4b 8b cd 3c
       0.073053695 0.083833724 0.053811006 0.025090834
000350 78 49 7b 3d a5 e8 a7 3c 33 90 85 3d d9 11 e7 bc
       0.061349362 0.020496676 0.065216444 -0.028206753
000360 9b ad f9 3c cb e0 21 bd 10 84 8c bd bb 60 8e ba
       0.03047829 -0.03952102 -0.068611264 -0.0010862568
000370 0e 7b cd 3d 91 3f e1 3d 9b 98 05 3d 18 ae 68 bd
       0.100332364 0.109984525 0.03261624 -0.056806654
000380 36 0d fa 3c 08 6c d8 3d 69 2e d0 3d 35 b6 eb 3d
       0.030523878 0.1056748 0.10165102 0.115093626
000390 28 5f 91 bc 23 f6 c1 3c 8d ee e7 bc 48 cb 8c 3c
       -0.01774557 0.023676937 -0.028311992 0.017186776
0003a0 dd af b9 3d eb 60 03 3c e8 6d e1 3d 31 bf e7 3d
       0.090667464 0.0080187125 0.11007291 0.11315764
0003b0 a7 4a 90 3d 16 a5 5c 3d 1c 9e 97 3d 23 37 68 3d
       0.07045489 0.053868376 0.07403204 0.056693207
0003c0 b3 e3 8a 3d be b2 4f 3d 20 5d 09 3d 9f 3f b4 3d
       0.067817114 0.05070757 0.033536077 0.08801197
0003d0 ee 01 95 3d 0d 8a e7 bc ee 19 b7 bb bd 64 d8 3d
       0.07275759 -0.02826407 -0.005587808 0.10566089
0003e0 13 58 84 3d 38 e6 97 3d 22 b7 26 3c c8 46 8c 3d
       0.06462111 0.074169576 0.010175498 0.06849438
0003f0 54 74 01 3d ed 10 83 bc f4 de 12 3e d6 9b aa 3d
       0.03160508 -0.015999282 0.14342862 0.083305046

actor_fc.bias f4 [27]
000000 9e fe be 3d be c0 e3 bb ca 45 93 3c f7 c2 45 3a
       0.09325908 -0.006950467 0.017977614 0.00075440056
000010 30 88 12 bd 6e cd 56 bc 6d ec 21 3d a8 36 2a bd
       -0.03577441 -0.013110502 0.039532114 -0.04155603
000020 72 ff 55 bd ac eb 92 3c a7 53 a8 3c a8 49 92 3c
       -0.052245565 0.017934643 0.020547701 0.017857388
000030 4e cd 2f bd b3 d1 28 3d ab 05 02 b9 75 c9 ff bc
       -0.042920403 0.04121561 -0.00012399878 -0.031223992
000040 67 f2 78 ba 02 b1 3d bd 12 78 8b 3d cf 01 14 3d
       -0.000949657 -0.046311386 0.06810011 0.036134537
000050 f2 34 1b bd fb e3 07 bd ca 91 a8 3d df 3d f6 3c
       -0.03789229 -0.033176403 0.08230932 0.0300588
000060 87 ba d3 bc ed cb 69 3c 39 6e 38 bd
       -0.02584578 0.014269811 -0.04502699

critic_fc.weight f4 [1, 256]
000000 68 85 35 bb 45 c3 83 bc 90 77 bc 3b 8d d7 d9 3b
       -0.0027697925 -0.016084323 0.0057515576 0.00664801
000010 71 0d e4 39 58 43 a4 bb 56 79 34 bb 38 c4 5e bc
       0.00043497563 -0.005012911 -0.0027538142 -0.013596587
000020 c2 7b 64 bc d8 52 1c ba 25 b8 15 3c 97 5b ba 3b
       -0.013945522 -0.00059632724 0.009138142 0.005687188
000030 2a 5a 88 3b 57 8a 56 37 ab 12 35 bc 49 38 8f 39
       0.004161139 1.2787604e-05 -0.011051814 0.0002731702
000040 93 b1 6c 3b 73 42 5c bc ca f6 4d 3d 16 bf 9d 3b
       0.0036116585 -0.013443577 0.050284185 0.004814039
000050 9b 1e be 3b 42 de 38 3b 93 45 52 bb 9b 18 1c 3b
       0.0058019883 0.0028208648 -0.0032084926 0.0023818377
000060 ab 2b 42 3b 1c ba 2d bc 89 d5 09 bb 23 98 5d ba
       0.002962808 -0.010603454 -0.0021031818 -0.0008453151
000070 0b 1b 86 3a cd 23 2d bc 2d 33 8b 3b 29 04 c9 3b
       0.0010231448 -0.010567618 0.004248044 0.006134529
000080 f9 7e 84 3a 70 28 b2 3a ec 32 8b bc 7a e5 90 3a
       0.0010108642 0.0013592374 -0.016992055 0.0011054717
000090 17 fa 01 bc e6 34 99 3a a0 4a 85 3b c3 10 8c bb
       -0.007933161 0.0011688739 0.004067734 -0.004274459
0000a0 4d 9c 91 bc a9 9b c9 3b cb 6f 9e 3b 64 2b a2 3b
       -0.017774725 0.0061525893 0.004835104 0.00494902
0000b0 35 cd ab 3b 16 cd 72 3c 06 f2 8b 3c 34 c1 2c bb
       0.0052429684 0.014819404 0.01708318 -0.0026360275
0000c0 88 4b 7f 3b 13 c4 10 3b 42 d0 31 bc 04 0f e7 bc
       0.0038954932 0.0022089526 -0.010852875 -0.028205402
0000d0 16 3e c0 bb a2 d2 30 bc 66 de 55 bc f6 f3 a7 3b
       -0.005866776 -0.010792406 -0.013053512 0.005125518
0000e0 b8 16 cc 3a 14 f4 1d bc cd ba 7a 3a c5 c5 9d bc
       0.0015570736 -0.009640712 0.00095645786 -0.019259343
0000f0 b5 44 36 3b d2 4c 2a bb b5 22 58 3b 85 64 f9 3b
       0.0027811949 -0.002598573 0.0032979671 0.00761086
000100 e2 bc c8 ba 5f f9 d3 3b 51 ff 11 ba b5 7e ac bc
       -0.001531508 0.0064689363 -0.0005569356 -0.021056512
000110 1e 83 dc ba 6f 90 ae bb a5 00 d5 bb 3c b0 51 39
       -0.0016823744 -0.0053272764 -0.006500321 0.00019997446
000120 6e 50 1d bc 89 5d 05 b9 fa 98 85 bc d0 97 59 ba
       -0.009601695 -0.00012718713 -0.016308296 -0.0008300515
000130 18 67 bd bb 00 c7 66 bb fc 54 a3 ba 35 06 c3 ba
       -0.005780112 -0.0035213828 -0.001246124 -0.0014879169
000140 18 e0 58 3c 3b a1 3e bb 59 bc af ba 6b 45 13 bc
       0.013237022 -0.00290878 -0.0013407572 -0.0089887185
000150 82 e0 10 39 11 e7 47 3b a9 87 11 3c 91 48 e0 3b
       0.00013816546 0.0030502717 0.008882442 0.006844588
000160 28 03 8b bc b0 5c 40 bb 92 e6 40 3c fe 1f 88 3b
       -0.016969278 -0.002935212 0.011773722 0.0041542044
000170 e2 f1 e6 3a d0 4e 3b bc 47 eb 64 3c 39 06 8a 3b
       0.0017619694 -0.011432365 0.01397211 0.0042121676
000180 69 58 3b bc 93 dd 0b 3b 74 9d 2e 3c 86 bb 53 ba
       -0.011434653 0.0021341785 0.010657657 -0.00080769544
000190 23 d0 a0 ba 24 59 14 3b 83 7d fc bb ac 0f f1 3a
       -0.0012269061 0.002263614 -0.007705392 0.0018391511
0001a0 f1 3f 0d bc f3 42 ba b9 4f e8 b8 bb e5 5f 29 bc
       -0.008621202 -0.00035526566 -0.0056429277 -0.010337804
0001b0 59 35 ba bc 2f cd 8a 3a 85 40 20 ba 13 ec 8d 3a
       -0.022730516 0.0010589714 -0.000611313 0.0010827802
0001c0 44 33 aa 3b 27 bf 6c bb 1b 4c f2 3a af 67 ff 3b
       0.0051940996 -0.0036124678 0.0018485816 0.0077943425
0001d0 b7 ce 31 3c 77 52 28 bb e4 81 74 ba f1 3c 0b bc
       0.010852507 -0.0025683919 -0.00093272165 -0.008498416
0001e0 48 52 7f 3c b7 35 9f 3a 9a fd 92 bc 7f 17 f8 3b
       0.015583582 0.0012146746 -0.017943192 0.0075711603
0001f0 a8 5d 74 bb 85 51 49 bb fe 93 a4 bb 4a bd 4e bb
       -0.0037287269 -0.0030718755 -0.005022525 -0.003154593
000200 e8 50 d8 3a f3 76 db 39 c7 09 01 3b 62 8b 12 3b
       0.0016503604 0.0004185956 0.0019689666 0.002236091
000210 20 6a 12 3a 06 1a aa ba 93 c2 aa bb 54 de ce bb
       0.0005585272 -0.0012977726 -0.0052111833 -0.0063131247
000220 32 08 92 3a a7 c1 30 3b a7 65 ea 3b cd bd 64 3b
       0.0011141358 0.0026970895 0.007153231 0.003490317
000230 81 89 0e bc a3 8c 3d ba f1 3a 4c bb 1d 27 06 ba
       -0.008699776 -0.00072307343 -0.0031163062 -0.00051175227
000240 c0 2a b1 bb d1 00 da bc c4 94 51 bc 9e 7e 03 3a
       -0.0054067075 -0.026611717 -0.012791816 0.0005016121
000250 55 1a c3 3b b6 db 4f 3b 67 a8 43 bb 8a bf 41 bc
       0.0059540668 0.0031716651 -0.0029855014 -0.011825452
000260 3f c0 c3 bb ad 10 26 3b 2f 14 ce 3a 66 44 55 bb
       -0.0059738453 0.002533953 0.0015722568 -0.003254199
000270 3b f2 47 bc 0b 66 83 ba dc b7 75 bc a2 af 59 3b
       -0.012203748 -0.0010024918 -0.014997449 0.0033216258
000280 83 49 8e bb 83 1a 4c 3c cb 4b 03 bc aa e0 02 bc
       -0.0043422594 0.012457493 -0.008013676 -0.007988134
000290 eb c2 11 3a b5 88 79 ba 9d e3 78 bc 14 47 bf bc
       0.0005560356 -0.0009518967 -0.015190986 -0.023349322
0002a0 49 27 03 ba 24 e7 a7 ba c3 c0 80 3a b4 bd e2 b8
       -0.00050031074 -0.0012809974 0.0009823072 -0.00010811855
0002b0 fe d5 b2 3b 6d e4 d8 3a 70 b7 f6 3a 0b 1a 26 bb
       0.0054576388 0.0016547568 0.0018822979 -0.0025345113
0002c0 54 d5 98 bb fa bd 78 3a 66 41 8e bb 72 3a c3 bc
       -0.0046641026 0.0009488758 -0.004341292 -0.02383158
0002d0 5f bb a4 3c 75 7a 3d bc a4 f7 16 3c 1d 8a f3 3b
       0.020108877 -0.011564841 0.009214316 0.007432236
0002e0 46 90 03 bc 81 9b 10 bc ed 6e 29 ba 55 d7 89 bb
       -0.008030003 -0.0088261375 -0.00064633676 -0.004206578
0002f0 59 6e 33 3c c6 3e 49 39 ad dd 43 bb d9 76 6b ba
       0.010951602 0.00019192239 -0.0029886768 -0.0008982248
000300 f4 2a 7b ba df 5b 96 3c ea 03 b8 3a cc 82 c5 3a
       -0.00095812907 0.018354354 0.0014039252 0.0015068888
000310 23 67 3f 3a 3a dc 26 ba ed b1 41 bc e0 ec bb ba
       0.00073014403 -0.0006365214 -0.011822206 -0.0014337562
000320 1b 03 4e 3a f8 ff 92 3c f5 c3 0b 3c a7 f4 bd bc
       0.0007858739 0.017944321 0.0085306065 -0.023187948
000330 ab 9c a2 bb b3 03 b2 3a 6d b1 1e bc e9 05 26 3b
       -0.004962524 0.0013581425 -0.009685856 0.0025333113
000340 1a 0d 3a bb 91 fe 3b 3b 1b c9 d5 ba ac 09 b3 3b
       -0.0028389157 0.002868567 -0.0016310544 0.0054637995
000350 5e 60 88 bc a2 e8 34 3a 2f 5b 79 bc b0 ae 3a bb
       -0.016647514 0.000690112 -0.015219494 -0.002848547
000360 b3 46 95 3a 0e 3b 28 bd a7 cc d3 3b 6d c8 ba 3b
       0.0011388868 -0.041071944 0.0064636054 0.005700162
000370 06 48 73 3c 57 27 07 3b e1 e7 e0 bb 44 99 0f 3d
       0.014848715 0.0020622814 -0.0068635796 0.035058275
000380 06 9e 30 ba 42 9b 6a bc 4e 5a de bb 73 cd aa 3c
       -0.00067374145 -0.014319243 -0.0067856675 0.020849919
000390 82 ae b5 ba 70 ce b4 b9 ea 5d e3 3b cf 24 98 3a
       -0.0013861211 -0.00034486083 0.0069386857 0.001160765
0003a0 2e 00 d5 ba d1 31 22 bc eb 28 ea ba ca c8 20 3b
       -0.0016250664 -0.0098995725 -0.0017864978 0.0024533742
0003b0 de fe 4b bb ba 29 43 3c e4 91 b7 ba 5a f6 cd ba
       -0.0031127254 0.011911804 -0.0014005271 -0.0015713677
0003c0 8c cb e6 39 95 2b 51 bb 77 76 50 bc ca 51 af 3b
       0.00044020673 -0.0031916846 -0.012723557 0.005350326
0003d0 ae ab 75 3a da 89 4c 3b d8 aa eb 3a 76 66 43 ba
       0.00093715906 0.0031210096 0.0017979993 -0.00074539275
0003e0 ea 2a 8b bc 02 11 c8 ba c6 5a 18 bc 30 9d 15 3c
       -0.016988236 -0.0015263858 -0.009298986 0.009131715
0003f0 95 d9 5c bc 12 34 e3 bb 47 ff 44 3a 28 3e ae bc
       -0.01347961 -0.0069336975 0.0007514846 -0.021269873

exp_avg f4 [256, 28]
000000 90 1b 02 37 1a e5 64 b6 e8 95 2f 37 96 0e 14 b5
       7.755021e-06 -3.4108002e-06 1.0465716e-05 -5.515552e-07
000010 be c6 81 b6 11 27 c8 35 73 21 1b b7 d0 d1 f8 b4
       -3.867636e-06 1.4912531e-06 -9.246508e-06 -4.6346258e-07
000020 72 e1 c3 b6 42 5f 31 36 be ce 39 36 9c 04 1c b7
       -5.837698e-06 2.6430503e-06 2.7687488e-06 -9.299398e-06
000030 8c dd 84 b5 5f 0c aa 35 32 8e d1 30 c5 5f 1c 31
       -9.899245e-07 1.2669587e-06 1.5247166e-09 2.2755426e-09
000040 0b c4 10 30 c3 f3 56 31 74 ec 9a b1 8f d6 31 31
       5.266549e-10 3.127966e-09 -4.5088715e-09 2.5878852e-09
000050 62 61 6b b1 10 5c b4 31 aa 3b a2 31 0b 81 5c b0
       -3.4252357e-09 5.2491558e-09 4.7216036e-09 -8.0218915e-10
000060 cc 00 93 2f cc 00 93 2f 3f 5c 6f 9b 00 00 00 00
       2.673971e-10 2.673971e-10 -1.9799423e-22 0.0
000070 78 f9 16 b7 99 53 b4 b7 07 df 0b 36 6f 4e bb b7
       -8.998781e-06 -2.14966e-05 2.0842433e-06 -2.232866e-05
000080 22 d9 2e b7 54 11 f6 36 28 7f 43 b8 7b 59 82 37
       -1.0421763e-05 7.3333886e-06 -4.6610046e-05 1.5538875e-05
000090 af bd d1 b8 18 ac 46 37 6f d4 91 37 0f 96 83 b8
       -0.00010001228 1.1841788e-05 1.7384269e-05 -6.274517e-05
0000a0 71 d4 96 b6 6e 4f 21 30 b3 90 42 b0 ef 75 2f 2c
       -4.49508e-06 5.8684335e-10 -7.078242e-10 2.4934462e-12
0000b0 e2 44 10 21 32 58 8f 8f fb 9f d3 8f 33 cd 9c 8f
       4.8880263e-19 -1.413486e-29 -2.0867829e-29 -1.5461828e-29
0000c0 a4 a4 fa 8f e7 c7 b8 8f 9c 0c e0 0e 73 6e cc 8e
       -2.471532e-29 -1.82208e-29 5.5232406e-30 -5.039624e-30
0000d0 62 59 c3 8f 20 00 00 80 67 63 df 8d 00 00 00 00
       -1.9262914e-29 -4.5e-44 -1.3767366e-30 0.0
0000e0 d4 4b 0e b9 98 bc 0e b9 cc f2 8b b7 02 d8 a9 b8
       -0.00013570423 -0.00013612432 -1.6683152e-05 -8.0987826e-05
0000f0 d0 ed 50 b7 47 8c 0a b9 13 0d 8b b8 5f 3c 7c b8
       -1.2453136e-05 -0.00013212963 -6.630472e-05 -6.0137707e-05
000100 73 e4 5a b8 a4 52 19 b9 06 4d 90 b7 52 df 85 b8
       -5.218801e-05 -0.00014622003 -1.7202005e-05 -6.383531e-05
000110 43 0b 14 b9 70 ed 13 b9 3e 29 71 b9 28 e4 be 37
       -0.00014118575 -0.00014107465 -0.00022998915 2.2756009e-05
000120 93 60 48 b8 16 a7 2c b8 67 05 0f b9 a0 90 d7 38
       -4.7773658e-05 -4.1163607e-05 -0.00013639555 0.000102789374
000130 26 29 ac 37 3a fd db b8 f4 5c f4 b7 d4 d5 6b 38
       2.0523159e-05 -0.00010489901 -2.9130351e-05 5.622751e-05
000140 84 04 1d 38 08 1a c3 b5 9f d7 eb 35 00 00 00 00
       3.7435922e-05 -1.4536208e-06 1.7571618e-06 0.0
000150 94 1e b2 33 97 e0 af 34 0d be ba 33 32 24 53 35
       8.294333e-08 3.27597e-07 8.69587e-08 7.8656296e-07
000160 db b9 da 34 37 75 87 b3 5e 17 07 b4 a6 0a b2 b3
       4.0740892e-07 -6.3077486e-08 -1.2581356e-07 -8.290708e-08
000170 14 db e2 b3 dd fb 56 33 f4 e6 13 35 93 89 6f 32
       -1.0563795e-07 5.0054826e-08 5.509785e-07 1.3942912e-08
000180 f4 24 cd b3 44 3b 42 30 4c 0c 62 2e 28 00 10 2d
       -9.552778e-08 7.066101e-10 5.1397372e-11 8.185487e-12
000190 08 69 52 2b 90 73 e7 2b 12 54 a8 aa 10 7e 7c 2b
       7.475275e-13 1.6445612e-12 -2.990113e-13 8.970333e-13
0001a0 5b 18 20 00 47 6b 06 00 04 00 00 80 04 00 00 80
       2.947473e-39 5.89497e-40 -6e-45 -6e-45
0001b0 04 00 00 00 04 00 00 80 04 00 00 80 00 00 00 00
       6e-45 -6e-45 -6e-45 0.0
0001c0 7b 10 87 35 a5 f1 8d 37 05 04 f9 36 c4 18 5a 37
       1.006308e-06 1.6921034e-05 7.421246e-06 1.2999579e-05
0001d0 a3 c5 1c 37 20 bf 4e 35 fa eb c8 b6 91 b1 d4 b5
       9.3443405e-06 7.7019104e-07 -5.9879358e-06 -1.584691e-06
0001e0 b8 78 77 37 19 cc 17 b7 4e 07 17 37 b0 2e 95 36
       1.4750454e-05 -9.047822e-06 9.002002e-06 4.445981e-06
0001f0 f2 9c fa 36 e1 39 fc 35 5d 2f f7 b6 46 f5 34 36
       7.4688514e-06 1.8792308e-06 -7.3666874e-06 2.6964858e-06
000200 6c f6 34 b6 ef 3d ea 34 00 87 b7 b6 b7 2c 02 36
       -2.6965527e-06 4.363096e-07 -5.469541e-06 1.9397537e-06
000210 26 6a a7 35 94 37 48 b5 6d 7f b8 b4 05 11 b4 34
       1.2473363e-06 -7.458668e-07 -3.4365385e-07 3.3539996e-07
000220 0e 68 9a 35 bb 4b 68 b2 7b cf f9 33 00 00 00 00
       1.1504178e-06 -1.35213964e-08 1.16327065e-07 0.0
000230 e4 d7 1a 36 5c d8 38 b8 70 54 d0 36 86 3a db b8
       2.3073453e-06 -4.407052e-05 6.208713e-06 -0.000104536346
000240 18 0d 41 b7 51 09 85 37 62 aa 75 38 5d 5d 0e 37
       -1.1506745e-05 1.5859174e-05 5.8571233e-05 8.485597e-06
000250 3e c0 9d b8 a0 38 e1 37 0c 52 0b 36 d7 0c f8 37
       -7.522151e-05 2.6848458e-05 2.0760372e-06 2.9569883e-05
000260 f9 30 59 37 0b ab 6f b5 ad 9b 86 b5 e8 73 62 36
       1.294561e-05 -8.928334e-07 -1.0029086e-06 3.374409e-06
000270 2d f8 8f b1 95 e1 24 b1 f3 84 a4 af aa 95 1e 26
       -4.190062e-09 -2.399337e-09 -2.9925892e-10 5.5020094e-16
000280 a1 d1 7d a5 21 bb fd 25 1f c0 fd 24 a3 97 7c 00
       -2.2015277e-16 4.4015307e-16 1.10046726e-16 1.1441999e-38
000290 b3 d6 4b 00 04 00 00 00 c3 6a 05 00 00 00 00 00
       6.964682e-39 6e-45 4.97476e-40 0.0
0002a0 7e 00 3d 38 0c b1 1e 35 6f f0 3c 37 83 2e 9f 38
       4.506157e-05 5.9117224e-07 1.12616535e-05 7.590374e-05
0002b0 c6 53 3b b7 a9 04 8b b7 32 7d 40 b7 95 4c 41 b7
       -1.1165574e-05 -1.6572261e-05 -1.1473241e-05 -1.1521527e-05
0002c0 3c 76 c7 38 5e 66 b9 36 73 e2 c5 34 f5 01 d4 32
       9.511082e-05 5.5253468e-06 3.6858873e-07 2.4680938e-08
0002d0 7e 5e 73 ae ec a1 7b 9f 47 a1 35 1f 24 b3 64 a0
       -5.533573e-11 -5.3285256e-20 3.8461646e-20 -1.9371624e-19
0002e0 44 68 1e 1b 96 8f 0c 1c 91 ce b2 9a 96 70 88 19
       1.3103144e-22 4.6507695e-22 -7.39528e-23 1.4107544e-23
0002f0 60 6e 47 1b 1d ac 51 1c 11 ee 08 9c b1 01 61 9b
       1.6496558e-22 6.937475e-22 -4.530632e-22 -1.861211e-22
000300 2f 71 88 1c d7 a1 00 00 04 00 00 00 00 00 00 00
       9.028982e-22 5.8057e-41 6e-45 0.0
000310 73 96 bb 37 fc ba d1 36 ec a7 8c 37 c0 1a de 35
       2.2362196e-05 6.250453e-06 1.6767495e-05 1.6548074e-06
000320 db 0d 14 b6 3a 88 06 b6 ae 30 0d b6 66 b7 4d b6
       -2.2061784e-06 -2.004685e-06 -2.1038973e-06 -3.0654132e-06
000330 6f 62 92 37 3b e1 63 35 6c 7f f0 33 3f 0f 32 30
       1.7450393e-05 8.4891843e-07 1.1199049e-07 6.477769e-10
000340 a8 b2 ff 2d d1 e5 a0 2b de a7 92 2c 33 6a 18 2c
       2.9069483e-11 1.1432471e-12 4.1682066e-12 2.1659452e-12
000350 2c ca d5 aa 25 83 3a ab d9 ae f8 aa 9a 48 c2 2c
       -3.7976686e-13 -6.6262474e-13 -4.4174975e-13 5.521872e-12
000360 25 83 3a ab 25 83 3a 2c d9 ae 78 2b d9 ae f8 2a
       -6.6262474e-13 2.650499e-12 8.834995e-13 4.4174975e-13
000370 d9 ae 78 2a 04 00 00 00 04 00 00 00 00 00 00 00
       2.2087487e-13 6e-45 6e-45 0.0
000380 e7 f2 37 b0 2d 16 e5 af b4 e9 47 b0 64 7c bb b0
       -6.6920197e-10 -4.1670614e-10 -7.272789e-10 -1.3641395e-09
000390 7b c2 e9 b0 0d 6f 28 2f 6b 5b b1 2e 50 d2 c6 2f
       -1.7008256e-09 1.5318964e-10 8.065267e-11 3.6165426e-10
0003a0 da d7 3a 2f e9 9a 03 b1 52 c9 1f 2f 06 3f 54 b0
       1.6993287e-10 -1.9151065e-09 1.4532489e-10 -7.721471e-10
0003b0 48 ce 54 2d e1 8a 98 ad 8a 98 b2 a6 26 9e 3c 1a
       1.20966084e-11 -1.7342074e-11 -1.2392577e-15 3.900524e-23
0003c0 70 21 97 18 3d 2f e7 94 95 20 00 00 4f 97 01 80
       3.906635e-24 -2.3343671e-26 1.1688e-41 -1.46115e-40
0003d0 8e 35 01 80 75 51 00 80 6f 66 01 80 37 b3 00 80
       -1.11047e-40 -2.9221e-41 -1.28582e-40 -6.429e-41
0003e0 ba 76 01 80 04 00 00 80 4a 10 00 80 00 00 00 00
       -1.34427e-40 -6e-45 -5.843e-42 0.0
0003f0 8a f2 84 36 ae ce fd 36 6c 10 d1 36 53 b1 89 36
       3.962142e-06 7.5640482e-06 6.230597e-06 4.1035614e-06

exp_avg_sq f4 [256, 28]
000000 10 61 89 37 34 5a 04 36 2a a6 7d 37 39 2c 85 37
       1.6376871e-05 1.9722038e-06 1.5118663e-05 1.5875428e-05
000010 bb 33 ce 35 c2 e4 23 35 e3 35 f6 35 b6 8e ab 35
       1.5363252e-06 6.105512e-07 1.8344111e-06 1.2782027e-06
000020 9f fb 28 38 e7 bd 0c 33 74 76 3e 35 5f 5b f7 32
       4.028866e-05 3.2769005e-08 7.095289e-07 2.8796135e-08
000030 1a ac 64 33 fd 95 35 33 5b 22 18 32 73 8b 79 33
       5.3241912e-08 4.227876e-08 8.855376e-09 5.810166e-08
000040 b0 8d 4b 32 5d 7b b6 31 28 4f 2d 32 45 a6 33 31
       1.1848371e-08 5.310922e-09 1.0087923e-08 2.6142442e-09
000050 e5 c6 0c 32 9a 4e 40 32 12 66 c9 31 05 8c 7b 30
       8.194296e-09 1.1193743e-08 5.861474e-09 9.151225e-10
000060 65 f4 5c 30 12 c1 dc 2c a5 b9 93 2c 00 00 00 00
       8.038284e-10 6.274211e-12 4.198602e-12 0.0
000070 d8 5c b7 38 af 01 9e 36 fb 68 00 36 a9 9a 77 34
       8.7434135e-05 4.708963e-06 1.9134593e-06 2.3059933e-07
000080 65 df 37 37 84 49 71 36 5b 6b c6 36 38 e6 d6 38
       1.0959663e-05 3.595459e-06 5.9133577e-06 0.00010247197
000090 f4 e9 87 36 29 57 6f 36 bd f8 01 37 47 ef a3 38
       4.0505493e-06 3.566451e-06 7.746913e-06 7.8170146e-05
0000a0 f7 01 15 35 92 77 1c 31 ee 1e c8 32 83 9c 65 30
       5.5509685e-07 2.2768956e-09 2.329713e-08 8.353213e-10
0000b0 03 4c b0 30 64 40 c1 2f 8c 02 85 2f 34 a0 8e 2f
       1.2827289e-09 3.5152248e-10 2.419437e-10 2.594348e-10
0000c0 05 e4 e9 30 16 bb 4d 31 5f fc 8c 2f 0f 95 45 30
       1.7017788e-09 2.9937772e-09 2.5645172e-10 7.188001e-10
0000d0 e6 c9 c6 2f cc 74 a9 2b 56 df 9b 2b 00 00 00 00
       3.6159448e-10 1.204059e-12 1.1075401e-12 0.0
0000e0 8b a5 2e 38 25 30 e1 37 9a 3f 16 38 93 62 07 38
       4.1639007e-05 2.684451e-05 3.582202e-05 3.2278313e-05
0000f0 f7 4a f8 37 9a 52 f8 37 67 ed c7 37 5a d8 bb 37
       2.9598812e-05 2.9602368e-05 2.3833198e-05 2.2392884e-05
000100 3f b8 c1 37 36 64 9e 37 5a 69 ed 36 5c 3f db 36
       2.309319e-05 1.8881732e-05 7.075415e-06 6.5340846e-06
000110 39 fa eb 36 38 67 f1 36 ca eb cc 36 10 bb e0 36
       7.0326755e-06 7.194376e-06 6.107123e-06 6.697497e-06
000120 59 10 c9 36 0a 44 c3 36 07 d4 97 36 a6 af 7e 36
       5.99217e-06 5.8193737e-06 4.524834e-06 3.795119e-06
000130 58 30 35 36 8e a2 f7 35 6f f5 94 35 7a 39 13 35
       2.6999242e-06 1.8450244e-06 1.109829e-06 5.4845407e-07
000140 7a 6c 01 34 58 1a 50 30 07 29 91 30 00 00 00 00
       1.2053525e-07 7.5707396e-10 1.0561799e-09 0.0
000150 d2 f5 12 33 af 58 91 33 42 71 db 33 e9 98 39 34
       3.4216846e-08 6.76822e-08 1.0218584e-07 1.7285096e-07
000160 6d 6c 0a 34 26 7f b1 32 72 13 66 32 46 da 77 31
       1.2891697e-07 2.0663332e-08 1.3392183e-08 3.6067305e-09
000170 17 3f 63 32 02 17 94 33 01 cb 21 31 b4 3d 53 31
       1.3227484e-08 6.895972e-08 2.3543978e-09 3.0739615e-09
000180 1b 42 7b 33 7d b8 5c 32 ff 80 30 32 f5 ad 95 30
       5.8500614e-08 1.2847633e-08 1.0273879e-08 1.0890618e-09
000190 60 e0 33 30 5b 51 06 31 47 a8 e0 2e 27 b3 37 30
       6.5438677e-10 1.9545812e-09 1.0216233e-10 6.6829603e-10
0001a0 27 1f 56 2e 24 84 2a 2d 95 a8 2b 2e 4f 82 8e 2d
       4.8685635e-11 9.692722e-12 3.903063e-11 1.62014e-11
0001b0 af 16 b5 2c 1d 7c 35 28 e8 6a d8 28 00 00 00 00
       5.146848e-12 1.0074431e-14 2.402718e-14 0.0
0001c0 8a 0f 07 39 24 5d b7 38 36 ea 0a 38 d4 4f 58 39
       0.00012880392 8.743469e-05 3.311989e-05 0.00020629104
0001d0 9e d1 04 37 9a 45 9f 36 b6 be cc 38 ef 22 15 37
       7.916618e-06 4.746672e-06 9.763001e-05 8.889226e-06
0001e0 1a cc 6e 39 86 4a 85 38 58 c7 0c 35 4d 91 b8 34
       0.00022773482 6.355815e-05 5.244415e-07 3.437839e-07
0001f0 f3 0e 87 34 25 13 b6 34 26 fe 07 34 a0 5f a9 34
       2.5156587e-07 3.391407e-07 1.2665313e-07 3.154828e-07
000200 fa 34 28 34 ac b2 d5 33 4c 72 29 34 bc 97 75 33
       1.5665492e-07 9.9510856e-08 1.5780932e-07 5.718151e-08
000210 d4 f9 ca 33 33 7a ee 32 0f 00 1f 32 82 43 28 32
       9.4518015e-08 2.7762416e-08 9.255031e-09 9.7942365e-09
000220 4a 07 96 31 19 d1 93 2d a9 82 f5 2d 00 00 00 00
       4.3664032e-09 1.6804823e-11 2.79113e-11 0.0
000230 10 fb f1 37 3a f2 a7 36 b1 f8 6f 37 6c 4a 86 37
       2.8846349e-05 5.0051867e-06 1.4303413e-05 1.60087e-05
000240 cc 1a 21 36 fc 75 77 35 d8 9d d9 35 96 b2 b3 35
       2.4006467e-06 9.218636e-07 1.6213698e-06 1.3388515e-06
000250 6a 3d 16 38 7c 5a a6 36 c3 25 86 35 d2 97 95 33
       3.5819983e-05 4.9577193e-06 9.994768e-07 6.965969e-08
000260 fe 77 f5 33 8b 8f e8 32 4e 4b d9 33 d4 6c b0 32
       1.1430528e-07 2.707363e-08 1.0118548e-07 2.0538586e-08
000270 a8 24 7b 31 78 52 b6 31 2f a7 11 31 c9 b8 19 30
       3.6546144e-09 5.3062728e-09 2.119531e-09 5.592367e-10
000280 1e c9 8e 2f d2 4f ff 2e 6c a0 f4 2d da a3 48 2d
       2.5972552e-10 1.16102364e-10 2.781083e-11 1.1405066e-11
000290 14 5f 58 2d 4e 96 f8 28 3e d7 0f 29 00 00 00 00
       1.229929e-11 2.7598715e-14 3.193907e-14 0.0
0002a0 83 b8 a5 35 38 ed 6e 35 31 c6 01 37 bc 70 51 36
       1.2347158e-06 8.900711e-07 7.735144e-06 3.1209047e-06
0002b0 26 5c f7 34 33 14 b7 34 92 14 d5 34 38 4d 1a 35
       4.6074382e-07 3.4101103e-07 3.9689309e-07 5.748184e-07
0002c0 70 e5 35 37 5a 81 43 33 b4 74 7c 34 41 4d 78 34
       1.0841861e-05 4.551962e-08 2.3511785e-07 2.3124905e-07
0002d0 c9 ed 33 34 c8 6d 00 33 5a 1b ed 32 45 ec 83 32
       1.675718e-07 2.9902168e-08 2.760287e-08 1.535785e-08
0002e0 8d e8 ca 33 f7 60 a5 32 19 2e 8b 32 f8 6d 54 32
       9.448659e-08 1.9252623e-08 1.6202693e-08 1.2365028e-08
0002f0 67 e0 22 33 1e 89 39 33 fb c1 f8 31 a9 17 96 32
       3.7922657e-08 4.3198376e-08 7.239803e-09 1.7473058e-08
000300 51 b8 c2 31 15 3a 0f 2d 48 2b 6d 2d 00 00 00 00
       5.6670975e-09 8.141506e-12 1.3481501e-11 0.0
000310 0c 7e bd 38 8c 8b 8d 37 94 68 0b 37 56 bd 3a 36
       9.0357e-05 1.6873491e-05 8.309395e-06 2.7826368e-06
000320 19 58 bc 33 a9 0f d4 35 7c 9d 21 35 b6 37 d2 35
       8.770457e-08 1.5799789e-06 6.0206344e-07 1.5662433e-06
000330 91 d1 98 36 b6 44 12 38 c0 dc 86 35 c9 ac bb 33
       4.5543497e-06 3.4873105e-05 1.0048025e-06 8.7392955e-08
000340 6b 95 b3 33 31 3d 79 32 a1 84 a2 33 18 c9 cc 32
       8.362516e-08 1.4507621e-08 7.567838e-08 2.3840173e-08
000350 1e 48 fc 30 f2 c0 28 31 c3 a2 85 30 38 b1 15 34
       1.835591e-09 2.4556894e-09 9.723283e-10 1.3941178e-07
000360 67 e2 10 31 96 3c 09 33 64 21 81 31 e9 e7 75 30
       2.1083453e-09 3.19529e-08 3.75819e-09 8.9460045e-10
000370 c2 04 85 2f a8 41 89 29 89 74 81 29 00 00 00 00
       2.419594e-10 6.095412e-14 5.7489664e-14 0.0
000380 d6 6e 84 32 b6 89 de 31 85 b8 3e 33 c1 3e 86 32
       1.5417225e-08 6.4767063e-09 4.4405642e-08 1.562819e-08
000390 e4 f0 58 33 d7 0e 13 32 23 48 fa 31 a1 22 95 32
       5.0510508e-08 8.5599e-09 7.2841586e-09 1.736163e-08
0003a0 3f 67 19 32 d2 9a 01 32 7a 21 0a 32 6a f5 09 33
       8.929248e-09 7.54399e-09 8.040269e-09 3.2121e-08
0003b0 70 50 2b 32 c8 5e a3 32 eb 29 00 32 9c ca 02 31
       9.971799e-09 1.9018799e-08 7.460112e-09 1.903266e-09
0003c0 6d cc 4a 31 13 ea b4 31 99 f8 f0 2f 88 9e 28 31
       2.9511071e-09 5.2653006e-09 4.3832385e-10 2.4537332e-09
0003d0 84 83 8b 31 de 55 41 30 26 89 86 31 e6 5d 6a 31
       4.060384e-09 7.0335016e-10 3.9155053e-09 3.4104857e-09
0003e0 be e9 27 31 e1 5b 91 2a 1e b7 2e 2c 00 00 00 00
       2.4434565e-09 2.5820928e-13 2.4828538e-12 0.0
0003f0 dd 7d fb 33 ef 51 42 33 63 1d 48 34 ea ac 81 34
       1.1710993e-07 4.5243663e-08 1.8637142e-07 2.4153934e-07
